models/pg/reinforce_trading_env.pth (torch, 86292 bytes, 6 tensors)

fc1.weight f4 [128, 17]
00000000: e39a 5c3d 2c4f 47be 1428 e13d 3d5d 7c3d
00000010: 8f98 db3d edc1 6dbd b920 503e 856e fd3c
00000020: 0619 64bd 029e a5bb 2192 c2bd 6996 0abd
00000030: 35a3 543e 5073 a83d 944d cfbc 2592 333c
00000040: 31ed 623d 1054 0fbe 8a39 08be f3fd 5a3e
00000050: 273b ad3a 46d5 933d df94 e4bd 728e 36be
00000060: 3312 453d 0524 063e cfea 69be 47a1 75be
00000070: 6aa8 a5bd b79b 203e dce9 5dbe 886a 463e
00000080: 079a 603e 74f2 5ebd a954 8d3c 8faf 06bc
00000090: 96cd 733e d181 eb3c d718 7a3d 3845 a6bd
000000a0: 53a0 98ba 0cdd 01be 253b 653c 137b 02bd
000000b0: 7a84 403d 2d80 483d de5c 49be ccc3 273e
000000c0: eb73 0a3e 8bc9 303e 2fe7 363e b25b 833d
000000d0: 29e1 053e d30e f13d 1e31 123e a97a 17be
000000e0: 22a0 e73d c526 aebc 0d67 bc3d 38d9 b23d
000000f0: 10fb 3abe efb4 e5bd 04ad 32be 84c8 87bd
00000100: 5293 9c3d 3c47 603d e951 433e 834f 33be
00000110: 8598 983d f100 4d3e e472 3dbe f810 39be
00000120: ebab 763d 2ee3 c5bd 46c2 823d fc5a ecbd
00000130: e071 073d b3a6 50be f2be 473e 6db8 1cbe
00000140: 8f0b 62be 3f85 fdbd 6a40 e43b 5942 6b3e
00000150: d0b4 4f3d 2db5 4fbd c8c0 32be 66b9 e23d
00000160: 4ee2 903c 46d8 8fbd d14a 8bbd 9ca8 113d
00000170: 0e3b 123e 4b5b 15be 3df2 6fbd 5440 ea3d
00000180: d91c 2abe e864 c4bb 3524 493e a36b 2d3e
00000190: 5d42 47be 7421 e9bd 4743 263d 1586 1e3e
000001a0: ba3d c4bd 9adf 5fbe 18c3 f1bb 0a77 1d3e
000001b0: bd1e fcbd d506 63be 5c27 953c b41f 503e
000001c0: 96bb 47be 715d 5c3d 24fd 1e3e 270d 103c
000001d0: 036d 03be 638a b0bd a35a 23be 3dfa 9c3c
000001e0: bcea d4bd 7ce7 1f3c 6836 54bd 6b6e 28be
000001f0: 5224 723e db7b 703d 14ff f83d 4288 143e
00000200: d567 cb3d b4e0 64bd 363a 95bd c448 07be
00000210: c17a 5bbe 85fd 3bbe de14 babd e0f0 693e
00000220: cbff 6cbe b36d 1cbe 8432 41be 1204 2ebe
00000230: 1b19 4b3e 7b72 44be 11b6 31be 7347 11be
00000240: ac29 853d cd44 9bbd 9e5e 25be fc4d 4d3e
00000250: 4e56 183d 6a4e 35be ba74 b9bd ebe9 183e
00000260: b354 b43d 623a 1ebe 425e fcbd 2ad5 c2bd
00000270: 80ba bd3d 8d2b 47be a42a 683e 201f c23c
00000280: 0958 c53d e377 923d 6b53 413e 9c68 a2bd
00000290: d6af bbbd 21ff 21be 1d2f 4b3e 9b95 a0bc
000002a0: 3a1b 78bb e5d9 5a3e 6a76 7abd 01aa a6bd
000002b0: 2363 cfbd 97ad 0e3e 86d3 f03c 32af 04be
000002c0: 8f32 233e 99a6 c13d d998 63bd 8d2a 643d
000002d0: 9917 61be 647b 30be 8339 b6bd 7138 ef3d
000002e0: 85d2 58bd 8c36 353e 69a9 67be b26f 363e
000002f0: 7a4b 6ebe c3f5 a6bd 3c9c 653e 1756 a2bd
00000300: 4aea d4bd 8d02 083e 2038 03be 7a41 553d
00000310: 0985 aebd 0953 c63d f871 16be f121 00be
00000320: bf24 23be 37d7 28bd e271 783e 23cb 0e3e
00000330: b23a 43be 92a7 003e fc54 653e b4a0 773e
00000340: 9fa8 d43c e246 883d 1919 363e 46d5 703e
00000350: 874b 253c 0250 28bd 3c6f 4b3e 45c2 81bd
00000360: 10c9 473e 7001 543e ad1b 8e3d 091f 46be
00000370: 6ee6 413e 494d e93d a72d 673d 59b5 4f3d
00000380: 5308 e63d a4c6 103e 86b6 24be b07b 46be
00000390: b394 fd3d 3572 d2bd bcfe 5bbe 5ca2 4d3e
000003a0: 245a 42be a256 adbd 6cda 1dbe 4993 553e
000003b0: 5930 08bd e0d3 01be d96d 4d3e 694b 653e
000003c0: eccf 013e 48b0 403e e07c 61be 8c4c 62be
000003d0: 0bdf 053e c770 66bd 2b82 cf3d 80f4 643e
000003e0: b05d 6abd 67cc 05be 7cdb 663e afd0 f1bd
000003f0: 3328 10be fa75 453e 5b5e 23bc ad42 f2bd
0.05385865 -0.19463795 0.109939724 0.061612356 0.107224576 -0.05804627 0.20324983 0.030936489
-0.055687927 -0.0050542364 -0.09500528 -0.03383485 0.20765384 0.08225119 -0.025305547 0.010960137
0.055401985 -0.13996911 -0.133032 0.21385936 0.0013216481 0.07218413 -0.111612074 -0.17827776
0.04811306 0.13099678 -0.22843479 -0.23987304 -0.08088763 0.156844 -0.21671242 0.19376576
0.21933757 -0.05443044 0.017252283 -0.008220567 0.23808894 0.028748425 0.061058845 -0.08118671
-0.001164446 -0.12681979 0.013991152 -0.031855654 0.04700134 0.048950363 -0.19664332 0.16383284
0.13520782 0.17264383 0.17861627 0.06413974 0.13074173 0.117704056 0.14276549 -0.14792885
0.1130984 -0.021258721 0.09199343 0.087328374 -0.18259835 -0.11216151 -0.17448813 -0.06630042
0.076452866 0.054755434 0.19074215 -0.175108 0.07450966 0.2001989 -0.18500859 -0.1807288
0.060222548 -0.09662472 0.06384711 -0.115407914 0.033067584 -0.2037609 0.19506434 -0.15304728
-0.22074722 -0.1237893 0.0069656866 0.22974528 0.050709546 -0.050709892 -0.17456353 0.11070518
0.017686035 -0.07023673 -0.068013795 0.03556119 0.1428034 -0.14585607 -0.058580626 0.11438051
-0.16612567 -0.0059934743 0.19642718 0.16935591 -0.1945891 -0.11383334 0.040591504 0.15480836
-0.09582086 -0.21862641 -0.0073779933 0.15377441 -0.1231055 -0.22170575 0.018207245 0.20324594
-0.19505152 0.05380005 0.15526253 0.008792198 -0.12834553 -0.08620145 -0.15952544 0.019162292
-0.103963345 0.00975978 -0.0518097 -0.16448371 0.23646668 0.058711868 0.12158027 0.14505103
0.09931914 -0.055878356 -0.072864935 -0.13211352 -0.21433546 -0.18358429 -0.09086011 0.22845793
-0.23144452 -0.15276222 -0.18866926 -0.1699374 0.19833796 -0.19184296 -0.17354609 -0.14187412
0.06502089 -0.07581482 -0.16149375 0.2004928 0.03719168 -0.17705694 -0.09055467 0.14932983
0.088052176 -0.15451959 -0.12322666 -0.09513314 0.09264088 -0.19450207 0.22672516 0.023696482
0.09635932 0.07151773 0.18879478 -0.07930109 -0.091643974 -0.1581998 0.19842191 -0.019602587
-0.0037858025 0.21372183 -0.061148085 -0.081378944 -0.10126331 0.13933407 0.029397737 -0.12957457
0.15937255 0.09455604 -0.05556569 0.055704642 -0.21981658 -0.1723457 -0.08897688 0.11680687
-0.052935142 0.17696589 -0.22623219 0.17816046 -0.2327098 -0.08152344 0.2242288 -0.079265766
-0.103962496 0.13282223 -0.12814379 0.052064396 -0.08521468 0.096838064 -0.14691913 -0.12512948
-0.15931986 -0.04122087 0.24262193 0.13944678 -0.19065359 0.12563923 0.223957 0.24182397
0.025959311 0.06654145 0.17783011 0.23518857 0.010088808 -0.041091926 0.19866651 -0.06335882
0.19510293 0.20703673 0.069388725 -0.19347776 0.18935558 0.11391694 0.05644002 0.050710056
0.112320565 0.14138275 -0.16085252 -0.1938312 0.12381878 -0.102756895 -0.21483892 0.20081466
-0.18979698 -0.084637895 -0.15415353 0.20856966 -0.033249233 -0.1267848 0.20061435 0.22392048
0.12676972 0.18817246 -0.22020292 -0.22099513 0.13073365 -0.056259897 0.101322494 0.22358894
-0.057218254 -0.13066255 0.22544664 -0.11807381 -0.14077835 0.19283286 -0.009971227 -0.11829124

fc1.bias f4 [128]
00000000: d1fd 993d 32d0 eebb 48ff 00be fd79 74bd
00000010: 9579 8bbd cfb3 523e 8009 5abe e6fa 913d
00000020: e411 613e 33e6 993d 83ce 03be 56c4 953d
00000030: be1a cb3d 282b d23d 54cc 953c 858a 59be
00000040: dbc5 653d c6ac 50bd d357 023e 0c75 5e3e
00000050: fe09 aebd 837a c23b 1e9c 4b3e 97ae 22bd
00000060: d8de 0e3d 62fa bcbd 4d06 803d e766 d0bd
00000070: 7b03 58be 29d8 57be e428 da3d 8d9a 1cbd
00000080: bf63 2d3d 1d93 263e 0007 503d 5008 5c3e
00000090: 2050 943d 1a56 60be 0968 1b3e 5689 5ebe
000000a0: 92e4 ee3d 058d 9abc 06e3 6cbe 417f 3bbd
000000b0: dffa 563e 2849 e6bd ff3e d3bd 1e26 083e
000000c0: b9a5 513d 5346 cc3d 038c 1cbe 01fd a8bd
000000d0: 7ead 1fbe 1436 623d f647 4a3d 46c3 f8bd
000000e0: b57d 07be c3fa e63d 2c39 b03c 0334 4b3d
000000f0: d225 60bd e607 5cbe a9f8 203e bb62 6a3e
00000100: 22c9 503e 790a 35be 4379 eabd 0cfd 33be
00000110: 9ab4 5e3e 0793 453e 4661 e3bd 8735 323d
00000120: 9202 323e abc3 3f3e 2c37 eabd a792 bfbd
00000130: 7c1a 3ebe d9a0 5dbe b380 89bd 76b0 9ebd
00000140: a894 163e 4adc 3b3e b43f 60bd 37ea dc3d
00000150: 85ac 593b 32e8 f53d 2668 59be 517b 27bd
00000160: c259 a5bd 58a2 483e 0cb6 e73d 093d c13d
00000170: d68f fb3d 85b4 25be fca4 39be 1329 11be
00000180: 292d 30bd 213c ffbd 33f1 d43d e196 583e
00000190: 6dc1 773e 83ea 273e cdef d03d 558d 973b
000001a0: 5b79 06be 148d 2b3d 21cd 0e3e 3bff e23c
000001b0: f04e dabc 6c7a a6bc 9403 5fbe c1c1 0e3c
000001c0: 3741 1d3d 4ecf 553e c923 b43d d5af 6a3e
000001d0: 93f5 a4bb 1ac9 403e c9bf 12be 1a7b 8b3d
000001e0: b2ad 6e3e c4d3 793d 308c 0cbe 5813 cb3d
000001f0: 150d 6dbe c06b db3d cf07 07be b303 2d3e
0.07519115 -0.0072880024 -0.12597382 -0.05968665 -0.06810299 0.20576404 -0.21292686 0.07127933
0.21979481 0.0751461 -0.12871747 0.07312839 0.0991721 0.10262138 0.018285908 -0.21244247
0.056096893 -0.05094602 0.12728815 0.21724337 -0.084979996 0.0059350147 0.19883773 -0.039717283
0.03488049 -0.09227444 0.06251202 -0.10175877 -0.21095078 -0.21078552 0.106523305 -0.03823333
0.042331453 0.16267057 0.050787926 0.21487546 0.07241845 -0.21907845 0.15176405 -0.21732077
0.1166469 -0.018866071 -0.23133478 -0.045775656 0.20994137 -0.11244422 -0.1031475 0.1329579
0.051183436 0.09974351 -0.15287785 -0.08251382 -0.15593526 0.055227354 0.049385034 -0.121466205
-0.13231547 0.11278298 0.021511637 0.04961015 -0.05472357 -0.21487388 0.15719856 0.22889225
0.20389226 -0.17679776 -0.1144891 -0.17576998 0.21748582 0.19294368 -0.11102538 0.04350808
0.17383793 0.18726985 -0.114363045 -0.093541436 -0.1856479 -0.2164339 -0.067140006 -0.07748501
0.14705145 0.18345752 -0.054748252 0.107868604 0.0033214402 0.12007178 -0.21231136 -0.040889088
-0.080737606 0.19593179 0.113140196 0.0943547 0.12283294 -0.16182144 -0.18129343 -0.14175825
-0.043011818 -0.124626406 0.103975676 0.21151306 0.2419488 0.16398053 0.10201988 0.0046250024
-0.13132231 0.04188259 0.13945438 0.027709594 -0.026648968 -0.020322047 -0.21778709 0.008713187
0.03839227 0.20879862 0.08795888 0.22918637 -0.0050341575 0.18826714 -0.14330973 0.06810589
0.23308447 0.06099297 -0.13725352 0.09915799 -0.23149522 0.10713911 -0.13186572 0.16895942

fc2.weight f4 [128, 128]
00000000: 73f4 223c e1c0 e93c 3dc4 1cbd 994e cbbb
00000010: 2d3c 43bd 7415 9a3d 73fe 073d 321e 46bd
00000020: cdc9 07bd cc95 2c3d 5cf5 5cbd dd53 903c
00000030: 3616 2bbd cf74 4abc dd94 803d 6f14 58bc
00000040: 52be 503d dddb 6ebd accb 913d 50bd aabd
00000050: 4b1b a8bd 6941 b5bd 7a8e 9cbd 756a babb
00000060: 1f81 a8bd 0998 b23c 6c05 36bd f2bb 4d3c
00000070: b90c 8bbb 440a 0f3d 60de 3fbc ee25 94bd
00000080: b272 333c 0b1b a93c 87c0 14bb 219c 99bc
00000090: 5e93 e9bb b503 033c 56a3 e63b 1106 ccbc
000000a0: 338d 763d b8a7 97bd a364 7b3d dc28 61bd
000000b0: 4f9d 843d 8cb8 80bd e350 58bd ca1d 283c
000000c0: f890 ac3d 61f1 06bc 0aa3 6abc a72a 0c3d
000000d0: b500 e93c 503d e0bc f753 c23b 5ad5 b43d
000000e0: 9e18 a0ba 43e1 a2bd 6cd9 9ebd 524e 483d
000000f0: 1fa0 73bd 2541 a5bd 1571 993b 9993 a2bc
00000100: a0b8 b63d be1d 88bd b540 7d3d fa84 d33c
00000110: 7115 6b3c c0ed 073d 443c 543d 74b4 813d
00000120: 39be 89bd 4535 af3d 3688 033d 40d2 7e3c
00000130: e043 23bd e44d ad3d bbd3 34bd 4806 943c
00000140: 6b2f 203d 3e36 90bd 4b53 a73d 71e7 2dba
00000150: 9615 4f3c e6cd a3bd e0c1 eb3c 073d 8bbd
00000160: 7103 a1bc 0e8b 293c 197e 4bbd 7926 a23d
00000170: d3bf 8fbd 1daa 9a3c 47eb fe3c 0292 82bd
00000180: 4bfb 04bc 41e2 a9bd 48ff b3bd c149 853d
00000190: 4b85 5fbc d36c e8bc 3607 8ebd 2843 ad3d
000001a0: 28a9 0fbd 6891 903d 2926 adbd e1de e63c
000001b0: 901a 04bd 4782 7c3d 8c40 743a f052 07bd
000001c0: 53aa 15bd d3c0 fcbc e4e9 9b3d 80ca c5b9
000001d0: 7d35 abbd 8745 34bb 4da6 b1bb 5568 963d
000001e0: 040c 95bd 965f e439 6fb2 903d 458a 123c
000001f0: 8115 17bb 2f71 a5bd 59da 85bd 5908 cabc
00000200: 1c1f 93bd 8d87 073d 6675 e73c 00ea 94bd
00000210: 2ebf b63d 8274 263c a0d9 743d f294 00bd
00000220: 21d0 953d 290a 983d a09f a0bd bb6e 0bbd
00000230: 35c4 82bd 9451 8d3a 4b69 6ebd 3109 1abd
00000240: a206 0c3d 77fc 253d bd21 8e3d eba1 a43d
00000250: e034 f63c b9e7 8abc ba28 9b3c 34dd ae3d
00000260: 258b af3d 9977 b0bd fbcb a63d 7f72 d1bc
00000270: 12e8 f7bc 280b 9ebd 33d1 3c3d e510 e53c
00000280: 1b81 7a3d 9831 3abd c24c 713d ee71 a9bd
00000290: 7833 883d 9735 833d 1d23 9ebd df3d 8fbd
000002a0: 271b 8c3c 9f0c 2c3d 3313 b13d 8608 383d
000002b0: b8f7 78bd 6efa eb3c 634f a3bd 779e 30bd
000002c0: a113 7c3c 3e21 de3c 6fa2 9fbd 011f acbc
000002d0: a35c 8fbd 8a51 a0bd dd7c 0cba 5a8b a3bb
000002e0: f792 9c3c 2f65 693d 18f3 abbd 9153 4dbd
000002f0: 6b4f e7bc 64f2 88bd f416 a83d 2808 ae3d
00000300: 5bea acbd a1ab 99bd ac03 43bd b150 d8bc
00000310: 3a0b df3b b693 adbd 9be6 26bc 1ddf 91bd
00000320: d3d8 a83d d2ed 50bd cd3c 763c 05f0 b63d
00000330: 3a9d 8fbd 9dd6 b43b 9673 a53d 36ca 823a
00000340: 8a18 82bd 68aa 25bd 7f86 98bd 5127 3abd
00000350: ded1 64bd 02fc 263d 89ed 533d 55f9 9dbc
00000360: 7462 8d3d 5a2f 5dbd c403 093d 2458 a0bd
00000370: 7ada 593d e884 b3bd 9d7e 5a3d d2c1 87bb
00000380: 084a a0bd c9ed a33d a396 4e3c 61cc 86bd
00000390: 4d24 cd3c d770 69bd 7725 80bd 0555 5a3b
000003a0: c95e 3fbc 4350 79bd 3ead 823d 2f08 af3c
000003b0: 2c55 33bd c59a 393d b38b 5f3d a1db 923d
000003c0: 3201 30bc b865 cdbc 6b14 203c 9ca3 fcbb
000003d0: 823e 3c3d 9229 23bd 54b4 3c3d 6c6f ab3d
000003e0: aee1 113d 9163 793d 18a6 66bd fca8 0a3d
000003f0: 3905 97bd cc17 3ebb fe9b 59bc 372f b63d
0.009945977 0.028534355 -0.038273085 -0.006204438 -0.04766481 0.07523623 0.033201646 -0.04836864
-0.033151437 0.042135045 -0.05394493 0.017618114 -0.04176923 -0.012356951 0.062783934 -0.0131884655
0.050962754 -0.058315147 0.071189255 -0.0833689 -0.08208331 -0.088503666 -0.07644363 -0.00568896
-0.08227753 0.021801012 -0.044438764 0.012557017 -0.00424346 0.0349219 -0.011710733 -0.07233797
0.010952638 0.020642778 -0.0022697763 -0.018751206 -0.0071281632 0.007996489 0.007038514 -0.024905236
0.06019325 -0.07405037 0.06137527 -0.054970607 0.06475317 -0.062851995 -0.052811515 0.0102610085
0.08426088 -0.00823626 -0.014321098 0.034220364 0.02844272 -0.027372986 0.0059304195 0.08829756
-0.0012214368 -0.079531215 -0.07756314 0.048902817 -0.059478875 -0.08069066 0.00468267 -0.01984577
0.08921933 -0.06646298 0.061829288 0.025820244 0.014348374 0.03318572 0.051815286 0.06333247
-0.06725735 0.08555082 0.032112323 0.015553057 -0.039859653 0.08462122 -0.044147234 0.018069401
0.03910772 -0.07041596 0.08170184 -0.0006633914 0.012639424 -0.079982564 0.02877897 -0.067987494
-0.019654961 0.010348095 -0.049680803 0.07917494 -0.070190094 0.018879944 0.031118048 -0.06375505
-0.008116554 -0.08295108 -0.087889254 0.06508208 -0.013642619 -0.028372204 -0.06934969 0.08460075
-0.03507343 0.07058984 -0.08454544 0.028182449 -0.032251894 0.06164768 0.00093174796 -0.03303808
-0.036539387 -0.030853665 0.076129705 -0.00037725642 -0.083598115 -0.0027507262 -0.005421436 0.073441185
-0.072776824 0.00043558766 0.070652835 0.008944099 -0.0023053589 -0.08078229 -0.06535787 -0.024662184
-0.07183668 0.033088256 0.028254222 -0.072711945 0.089231834 0.010159614 0.059777856 -0.031392045
0.07315088 0.07423813 -0.07842946 -0.034041148 -0.0638508 0.0010781758 -0.058205884 -0.03760642
0.034186013 0.040523972 0.06940029 0.08038696 0.03005451 -0.016956197 0.018940318 0.08538285
0.085714616 -0.086165614 0.08144375 -0.025567291 -0.030262027 -0.07716972 0.046097945 0.027962158
0.06115828 -0.045457453 0.058911093 -0.082736835 0.06650442 0.06406706 -0.07721541 -0.06994223
0.017102791 0.042004224 0.0864624 0.044930004 -0.060783118 0.028805938 -0.07974126 -0.043119874
0.015385539 0.02711546 -0.077946536 -0.021010878 -0.07000091 -0.07828052 -0.0005359182 -0.0049909772
0.019113047 0.05698126 -0.08395976 -0.050128523 -0.028236112 -0.06686857 0.08207503 0.084976494
-0.08443137 -0.07503439 -0.047610924 -0.026405664 0.006806758 -0.08475439 -0.010186817 -0.071226336
0.08244481 -0.051008053 0.0150291445 0.08932499 -0.070124105 0.005518748 0.08078687 0.0009978476
-0.06352337 -0.040445715 -0.07447528 -0.04544765 -0.055864207 0.040767677 0.051740203 -0.01928393
0.06903544 -0.054000236 0.033450857 -0.078293115 0.05318687 -0.08765584 0.053343404 -0.004142978
-0.0782662 0.08004338 0.012609157 -0.06581951 0.025041724 -0.056992378 -0.06257146 0.0033314836
-0.011680313 -0.06086756 0.063806996 0.021366207 -0.043782398 0.045313615 0.054576587 0.07170797
-0.0107424725 -0.025072917 0.009770493 -0.0077099334 0.04595805 -0.039834566 0.04607041 0.083708614
0.035615616 0.06088597 -0.056310743 0.033852562 -0.07374043 -0.0029005883 -0.01328182 0.08895724

fc2.bias f4 [128]
00000000: 7b9f 50bd 77f7 58bd d901 86bd 80d5 e5bb
00000010: a823 5fbd 10f6 9cbd e860 af3d f906 11bd
00000020: 48bf d5bb ac02 3e3c 8afe d53b 2e14 e13c
00000030: 3939 293d 6e01 11bd dcdc 08bd 9959 47bc
00000040: 6856 a6bd a60d 47bd 2737 1c3d 463d 3cbb
00000050: d7fc 7abd 1db8 72bd 6d66 d9bc fe87 a43d
00000060: c25f 513d 7c46 81bd 0cb2 1e3d df69 87bd
00000070: 75ca b63d a74b 543c 2c90 11bc 7251 963d
00000080: 0203 28bc 0494 abbd f906 6d3d 1ba6 d03b
00000090: 9c00 9cbd 6edb 383c 270f 803d edfb 4b3d
000000a0: 3dd7 9fbd 7186 45bd d1f9 b43d e834 9a3d
000000b0: 343c 6f3c f76a b3bc 7f7f b23d deaf cf3b
000000c0: ef16 7b3d 36c6 b4bd 128b 81bd 5719 113c
000000d0: 4c48 baba 28d7 d7bb 8a57 34bd 5331 d93c
000000e0: cefa a1bd 7406 8cbc 2c71 9fbd 650b c7bc
000000f0: 7314 163d f5a7 85bc 8d40 8ebd 84c0 94bd
00000100: 9503 e93c 0bcd 88bc 9905 933c 95c9 413d
00000110: 611d fabc 0c60 9bbd 22c2 513d 3e10 a63d
00000120: 260b 52bd eaae 7ebd 4da6 0abd 3fd4 4e3c
00000130: 124c a03c 04a0 053d 2d6a a33d 60be 6ebd
00000140: 2640 693d 8d23 b23d 94fb 31bd c8dc 62bd
00000150: 58f1 a63d 367a b53d 9cbd a83c 8473 33bd
00000160: b80a e7bc f9cd abbd ed69 0cbc 8963 43bd
00000170: 35f9 a43d 13a1 b9bb c5aa 103d 600d 523d
00000180: 6f9a 1b3d 6dda 103d 2e0e 1abb 759d 58bc
00000190: 14a2 98bd 71f7 4cbd 5e2c 8b3a 1b38 a63d
000001a0: 02f3 6bbb d94e 153d e8b1 153d 6b8f 96bd
000001b0: 1564 9d3d ad66 023d 83e4 84bc 3e6d 58bd
000001c0: f6ad 82bd d969 fbbc f49e d1bc fe29 abbb
000001d0: ff91 733d cf0b 4ebd ef9b 2fbd a564 dcbc
000001e0: 3aec 2bbd 2d80 7b3c 98f4 16bd fec3 24bd
000001f0: e1cb a33d 46e9 bfbc decf 8cbd e141 483d
-0.050933342 -0.052970376 -0.06543321 -0.0070139766 -0.054477364 -0.0766412 0.08563405 -0.03540704
-0.0065230466 0.011597317 0.0065305876 0.027475443 0.041314337 -0.035401754 -0.033413753 -0.012167358
-0.081219494 -0.048597 0.038138535 -0.0028723045 -0.061276283 -0.059257615 -0.026538098 0.08033751
0.051116712 -0.06312272 0.038744017 -0.0661199 0.08925334 0.01295749 -0.008884471 0.07339753
-0.010254623 -0.08377841 0.057867978 0.0063674576 -0.07617304 0.011282785 0.0625289 0.049800802
-0.07804725 -0.048223916 0.08836711 0.07529622 0.014601756 -0.02190159 0.08715724 0.0063381037
0.061301168 -0.08826868 -0.06325354 0.008856139 -0.001421222 -0.006586928 -0.044028796 0.026512777
-0.07909165 -0.01709292 -0.07785258 -0.024297426 0.036640596 -0.01631544 -0.06945906 -0.07263282
0.02844409 -0.016699335 0.017947005 0.047311384 -0.030531587 -0.07586679 0.05121053 0.08108567
-0.051280163 -0.06217853 -0.033850003 0.012623846 0.019567523 0.032623306 0.07979236 -0.058287024
0.056945942 0.08698187 -0.043452814 -0.055386335 0.081515014 0.088612005 0.020598225 -0.043811336
-0.028203353 -0.083888955 -0.008570177 -0.047702346 0.08055345 -0.0056649535 0.03531911 0.051282287
0.037989076 0.035364557 -0.0023506987 -0.013221134 -0.07452789 -0.050040666 0.0010618081 0.0811617
-0.0036002998 0.036452148 0.036546618 -0.073515736 0.07685105 0.0318362 -0.016222244 -0.052838556
-0.06380837 -0.03069012 -0.02558849 -0.0052235117 0.059465405 -0.05030423 -0.04287332 -0.02690346
-0.04197333 0.015350384 -0.036854357 -0.040225975 0.07997871 -0.023426663 -0.06875585 0.048890952

fc3.weight f4 [16, 128]
00000000: 54b1 89bc b85f 25bd 6783 923d 3a50 edbc
00000010: f3f2 28bd 5421 ed3c b6f4 a7bc 4f5c 953d
00000020: d683 873d ac1d 8cbb 9ad2 c0bc a5a3 5c3d
00000030: 487d 573d dc69 69bd f7aa dc3c b30f da3c
00000040: 0a45 b73d 95f4 52bd c68b 86bd e490 b6bc
00000050: 789d b2bd ad76 87b9 f541 3e3d 918b 3bbd
00000060: 8043 af3d 1726 4f3d 3c4d 623d 17c5 64bd
00000070: 6963 613d aca5 6a3d 7ad7 593d 4d10 83bd
00000080: 86b6 153d b0a8 b23c 3cec 163c 9c76 a43d
00000090: f399 c43a efaf 01bd 85b0 66bd 0a1f 7abd
000000a0: 0ad6 e4bc 919a 823d e794 393d 55dc 193d
000000b0: 0607 2b3d ed98 ab3c ef53 ddbc 5929 0a3d
000000c0: b2f8 cbbc cd51 163d 81b5 353d 1e11 7abd
000000d0: ec70 7dbd 50c4 aebd dcf6 b93c f955 06bd
000000e0: 2b00 1bbc 332e 553c 3ba1 8c3c 7784 9bbd
000000f0: dd7e 1fbc eb7f 83bc c8bd 92bc ef03 b5bd
00000100: 400a 73bd a7c6 9bbc deb6 bc3c 0b93 813d
00000110: f030 3dbd f7db db3a 83a8 8c3d afb8 ccbc
00000120: c566 103d 5f30 693d cfbf aebc 45d8 46bd
00000130: 0e44 333d a80f f43c 80a4 16bd 61f1 8ebd
00000140: 159f f5bb 57a7 2d3b 0e6f 443d ec19 80bd
00000150: 5465 973c 4763 a23c a00e bb3c 3ec8 8abd
00000160: ece6 d9bc 11d5 aebd e5d1 fd3c d3ba 42bd
00000170: 9ea8 8dbd 3b59 8a3d d2a8 54bd 9ea8 cf3c
00000180: 9c73 563d 828f 0b3d 42bc 94bd 5ee5 46bd
00000190: a3b7 a0bd 52c6 193a aad9 053d 0fdb 76bd
000001a0: 5bb5 293d cd1e 9fbd 4ccd 85bd f117 4ebd
000001b0: 3420 12bc bdac b43d 72a1 b73d fd1e adbd
000001c0: 1d21 a03b 2f22 503d faa2 f4bb b568 edbc
000001d0: b3a7 aa3c 4317 b33d cd86 3ebd af50 333c
000001e0: f509 193c e7eb 33bd c82d 4dbd 0d4a 10bc
000001f0: 3d55 953d a474 903c e9c8 8dbd bd69 693d
00000200: 1925 6dbc f852 f1bc c66b a93d 35d4 96bd
00000210: ff6e 4dbd 5ab2 33bd 3f8f 113c a04d 243d
00000220: c392 9fbd 0201 323c 5954 013d 69b5 78bc
00000230: f77c 99bd 5dab 883d a69c 3e3c 8052 9b3b
00000240: 28ad 5f3d fb82 a63d 1e42 043d a276 05bd
00000250: cef7 09bc af4b 02bd 26c8 483d 679e 873d
00000260: b5d2 5d3d 132d 983d 51b5 763d 763c 173d
00000270: 0111 b3bd e28b 6a3c b297 03bd b1fd 1ebd
00000280: 0587 553c 185b 893c 892b 99bd 4466 62bc
00000290: 55bc 183d 9b73 063d 4b63 973c 1375 6c3d
000002a0: ad42 d03c 8e15 a2bc 3fe1 723d 34a3 883c
000002b0: 3b54 623d 9c76 ddbc b872 adbd a18e ddbc
000002c0: 63ec d4bc a925 603d 24d7 143d b18b 47bc
000002d0: b792 20bd 3750 a0bb c458 7c3a b17a 9b3d
000002e0: 8d3f 3ebc 4bdf 7d3c 4cb2 bdbb 4c43 613c
000002f0: d3a4 a5bd 95a0 823b db89 8f3c 0e6c 933a
00000300: c103 713d aef2 4e3d afcf bebc a4f3 5f3d
00000310: f242 81bd deac 713c 7c3d a73c 4550 293d
00000320: c338 cf3c e8f6 66bc 9ad2 34bd 6928 a4bc
00000330: 7d11 273c f66a a3bd 3597 f93c 55ab aa3d
00000340: 0b53 08bd 1a4d fa3c 5f00 023d 1e05 0ebd
00000350: a8aa 453d 1aca 343b 6b11 8b3d 08a8 e1bc
00000360: 3b86 813d 0b99 85bd 974d d2ba e02b 32bd
00000370: 3eaf 95bc 2538 6d3c 33bd ae3d c7f9 d8bc
00000380: b402 3c3d c041 4e3d 60d5 9d3d 0128 1a3c
00000390: 8d06 873c 3697 91bd c78a d3bc 9e0e 20bd
000003a0: 5704 ad3d d0c3 1b3d b255 93bb d3e6 adbb
000003b0: 52c3 433d d61d 9f3d c114 64bd 0bb3 bf3c
000003c0: 2e24 783b bad6 86bd 3e1f 253d 495c 0b3d
000003d0: e286 84bc 3454 193d f957 56bd d22c 94bd
000003e0: e725 adbd f854 3cbd e6c6 e7bc a374 e6bc
000003f0: 8543 abbd 9114 d83c 9a67 7fbc e8fe a2bd
-0.01680819 -0.040374488 0.07153969 -0.028968919 -0.04124732 0.028946556 -0.02050243 0.07292997
0.066169426 -0.004275998 -0.023537923 0.053867 0.052609712 -0.05698572 0.026936991 0.026618814
0.08948715 -0.051502783 -0.065696284 -0.022285886 -0.08721441 -0.00025837627 0.04644962 -0.045787398
0.085577965 0.050573435 0.055249438 -0.055852022 0.055026446 0.057286903 0.05318401 -0.063995935
0.03655102 0.021808952 0.009211596 0.080304354 0.0014999494 -0.031661924 -0.056320686 -0.061064757
-0.027934093 0.063771375 0.04530802 0.03756364 0.041754745 0.020946944 -0.027017562 0.03373084
-0.02489886 0.036699105 0.04436255 -0.06105148 -0.06187527 -0.085335374 0.02270072 -0.032796834
-0.009460489 0.013011503 0.017166724 -0.07593625 -0.009734836 -0.016052207 -0.01791276 -0.08838641
-0.059335947 -0.019015623 0.023036417 0.06326874 -0.04618925 0.0016773929 0.068680786 -0.024990408
0.03525426 0.056930896 -0.021331696 -0.048546094 0.043766074 0.029792622 -0.036777973 -0.06979633
-0.0074957707 0.0026497447 0.047957473 -0.06254944 0.018480934 0.01982273 0.022834122 -0.067764744
-0.02659937 -0.08536733 0.030983875 -0.04754145 -0.06916927 0.067553006 -0.051918812 0.025348958
0.052356347 0.034072407 -0.0726247 -0.048558585 -0.07847526 0.0005866039 0.032678284 -0.060267504
0.04143272 -0.07769547 -0.06533298 -0.0503158 -0.008918811 0.0882201 0.0896634 -0.08453176
0.00488676 0.05081385 -0.0074657174 -0.028980592 0.020831918 0.08744671 -0.046515275 0.010944529
0.009340753 -0.043926146 -0.05009249 -0.008806718 0.072916485 0.017633744 -0.06923086 0.056985606
-0.014474177 -0.029458508 0.08272509 -0.07364694 -0.050154682 -0.04387126 0.00888425 0.04011309
-0.077916645 0.010864498 0.03157458 -0.01517997 -0.07494538 0.0667331 0.011634028 0.0047400594
0.054608494 0.08130451 0.032289617 -0.03258384 -0.008420898 -0.03181046 0.049019 0.0662201
0.054156024 0.07430472 0.06023151 0.036922894 -0.087434776 0.014315577 -0.03212709 -0.038816158
0.013032679 0.01676707 -0.07479007 -0.013818327 0.037288982 0.032825094 0.018479964 0.05772884
0.025422418 -0.019785669 0.059296843 0.016679384 0.05525611 -0.027034096 -0.084691465 -0.02704555
-0.025991624 0.054723416 0.036337987 -0.012179301 -0.03920242 -0.004892375 0.0009626264 0.07591761
-0.011611831 0.015495132 -0.005789077 0.013748955 -0.08088078 0.003986428 0.01752179 0.0011247413
0.05884147 0.050524406 -0.02329239 0.054675713 -0.06311597 0.014750687 0.02041506 0.041336317
0.02529562 -0.014096953 -0.044146158 -0.0200388 0.010197041 -0.079793856 0.030467609 0.0833346
-0.03328232 0.030554343 0.031738635 -0.03467285 0.048258454 0.0027586282 0.067904316 -0.027545944
0.063244306 -0.06523331 -0.0016044852 -0.043498874 -0.018272039 0.014478718 0.08532181 -0.02648629
0.045901015 0.050355673 0.07706714 0.009408952 0.016482616 -0.07108919 -0.02582301 -0.03907644
0.084480934 0.03802854 -0.0044962997 -0.0053070574 0.047793694 0.07769363 -0.055683855 0.023400804
0.0037863362 -0.065839246 0.040312998 0.034023557 -0.016177598 0.037433818 -0.05232999 -0.07235111
-0.08454495 -0.04597947 -0.028293084 -0.028131789 -0.08362488 0.026376994 -0.015588665 -0.07958776

fc3.bias f4 [16]
00000000: 5b24 1e3c c478 583c afab d43c 7a6f b23d
00000010: 9b4f 8d3d 8b91 ee3c 2b99 a83d 3e2e 81bb
00000020: b22a 6a3d 1bf6 f33b a1a5 913c 54b5 c73c
00000030: 07f8 89bc ba4e a83d 3d01 923d 1a40 2bbd
0.0096522225 0.0132123865 0.025960771 0.08712669 0.06899949 0.029122135 0.082323395 -0.00394228
0.057169624 0.0074451095 0.017779173 0.024378456 -0.016841901 0.08218141 0.071291424 -0.04180918
