models/pg/reinforce_trading_env.pth (torch, 86717 bytes, 6 tensors)

fc1.weight f4 [128, 17]
0.18313356 0.19392034 -0.06384681 0.2157687 -0.058440827 0.042002223 -0.12522976 0.13485898
0.20747237 -0.1843913 0.20429765 0.03824558 0.1715873 0.026567845 0.110483125 -0.04074731
0.18587923 0.033038985 -0.11615238 0.058805488 -0.11476143 -0.031640485 -0.10152424 0.157768
-0.19457698 -0.114968106 -0.07159908 -0.14885269 0.019769482 -0.2426682 0.21587744 -0.20914318
0.18422233 0.04026188 -0.07941872 0.15574688 0.043671764 0.20183222 0.030482579 -0.07049983
0.071429856 -0.060419653 0.10697848 0.22231357 0.14585762 -0.099710695 0.14537826 0.0482471
0.12894285 -0.14216723 -0.24289186 -0.08699812 -0.17957155 0.20540842 0.07625648 0.1068136
0.083104044 0.0020344956 0.19567236 -0.16595773 0.021392515 -0.15970168 0.0810433 -0.077649444
0.08068813 -0.044424683 0.20698446 -0.14906925 -0.14464776 -0.1446565 0.21814692 0.08082527
0.23338008 -0.2001589 -0.24056529 -0.18975109 -0.16315107 0.098236665 0.08684615 0.20152876
-0.12525155 -0.1653394 0.1286841 -0.09803399 0.14720064 -0.057553858 0.13874151 -0.18844242
-0.122395545 0.0739434 0.05127386 -0.061836578 0.14456807 0.16487795 -0.17588037 -0.12948206
0.22208063 -0.081839405 -0.08598285 -0.23467617 -0.13889293 0.060586285 -0.032013047 -0.17605321
0.0056890836 -0.1656716 -0.20576641 -0.13355531 -0.21227011 -0.15443166 0.24244076 0.045808904
0.07473971 -0.22620916 -0.15929104 -0.080729395 0.037925567 -0.21341227 -0.10450206 -0.14519845
0.00067212887 -0.09024829 -0.016806692 -0.16434935 -0.16647528 -0.14149572 -0.08301932 -0.19142874
0.20335881 -0.0481346 0.20867686 0.07556976 -0.20537843 0.1678432 -0.06673242 -0.09297022
-0.20132406 -0.24157944 0.069026716 -0.053345744 0.094059415 -0.1994053 0.1797522 -0.17887945
-0.042485896 0.050459996 0.12430059 0.19550298 0.22009699 -0.19293483 0.06084424 -0.105256125
-0.029840916 -0.18276078 0.21622401 -0.18287268 0.12475987 0.08033985 0.07394981 -0.13618067
0.21556005 0.048922744 0.026546292 -0.21820849 0.09673293 -0.041295346 -0.115461856 0.20367523
0.04963406 -0.12936817 -0.12101581 -0.014820781 0.1320422 -0.0653563 -0.14167455 -0.08643486
-0.18472798 0.0837652 0.18466163 -0.23123902 0.053648885 0.12173104 0.041291296 -0.089435704
0.1236912 0.12473175 0.09604621 -0.049742825 -0.06984256 0.019791875 -0.04899969 -0.07917439
0.14890468 0.202174 -0.030234406 -0.06019698 -0.0014344911 -0.020373603 0.05204578 0.06171134
-0.22618724 -0.09442539 0.19837193 0.09986325 -0.015574598 -0.14973758 -0.15189578 -0.22076662
-0.08256872 0.07839407 0.15113445 0.10846653 -0.21789937 -0.14936331 -0.04178765 0.2311052
0.031573065 -0.06632109 0.09682922 -0.095888816 -0.15698256 0.17474449 -0.1145975 -0.052914146
-0.24556926 0.1590531 0.17929691 0.08390183 -0.17398176 -0.24249205 -0.20047584 0.1769511
0.11190212 0.19917278 0.12401514 0.05791776 -0.0062800893 -0.18380798 -0.20779778 -0.22685537
0.09928486 -0.11907723 -0.048810918 -0.13958052 -0.044195704 -0.17070504 -0.15847658 0.08045169
-0.07208071 0.14972772 -0.07780755 -0.17791618 -0.042792726 -0.117568515 -0.07420173 -0.23774056
00000000: 5d87 3b3e 0e93 463e 1ec2 82bd 78f2 5c3e
00000010: a65f 6fbd 860a 2c3d 3b3c 00be 7918 0a3e
00000020: a373 543e 13d1 3cbe 6733 513e 66a7 1c3d
00000030: 95b4 2f3e cfa4 d93c fa44 e23d a7e6 26bd
00000040: 2057 3e3e e353 073d 4de1 edbd 06de 703d
00000050: 0a08 ebbd 7499 01bd f1eb cfbd ef8d 213e
00000060: 303f 47be 6674 ebbd 8aa2 92bd d76c 18be
00000070: 9cf3 a13c 037e 78be fa0e 5d3e a129 56be
00000080: c7a4 3c3e a4e9 243d 48a6 a2bd 1c7c 1f3e
00000090: 2ae1 323d 1bad 4e3e 9ab6 f93c 3762 90bd
000000a0: d149 923d 997a 77bd 8917 db3d 2ba6 633e
000000b0: b35b 153e 1f35 ccbd 0ade 143e c09e 453d
000000c0: 9809 043e 4994 11be a5b8 78be 122c b2bd
000000d0: 9be1 37be 9656 523e 5b2c 9c3d 17c1 da3d
000000e0: 7432 aa3d 2c55 053b 565e 483e d3f0 29be
000000f0: 5b3f af3c d688 23be 08fa a53d ac06 9fbd
00000100: d13f a53d a8f6 35bd bcf3 533e 9ca5 18be
00000110: 8b1e 14be d520 14be e861 5f3e b887 a53d
00000120: 30fb 6e3e 74f6 4cbe bf56 76be 1c4e 42be
00000130: 1311 27be 4e30 c93d 65dc b13d 8e5d 4e3e
00000140: f141 00be bb4e 29be c4c5 033e 0bc6 c8bd
00000150: c4bb 163e 98bd 6bbd 4112 0e3e 0df7 40be
00000160: 84aa fabd a36f 973d 8a04 523d 5a48 7dbd
00000170: a709 143e c4d5 283e fc19 34be f296 04be
00000180: 1b69 633e 6b9b a7bd c717 b0bd f34e 70be
00000190: f339 0ebe 5329 783d 1d20 03bd 4b47 34be
000001a0: 7e6b ba3b d1a5 29be 6eb4 52be b9c2 08be
000001b0: 565d 59be 5523 1ebe 6442 783e 1ea2 3b3d
000001c0: 2211 993d 60a3 67be 311d 23be 7455 a5bd
000001d0: d757 1b3d bf88 5abe 2d05 d6bd e7ae 14be
000001e0: ce31 303a 18d4 b8bd 30ae 89bc 324b 28be
000001f0: 7f78 2abe 41e4 10be 0906 aabd e505 44be
00000200: 4b3d 503e c928 45bd 63af 553e 51c4 9a3d
00000210: b94e 52be 16df 2b3e 02ab 88bd 2c67 bebd
00000220: e527 4ebe 9a60 77be e15d 8d3d 1181 5abd
00000230: 39a2 c03d e730 4cbe f610 383e 2d2c 37be
00000240: b105 2ebd 24af 4e3d 4f91 fe3d ef31 483e
00000250: 1b61 613e b590 45be cf37 793d 8690 d7bd
00000260: f074 f4bc a425 3bbe d469 5d3e fa42 3bbe
00000270: 1a82 ff3d 3889 a43d ff72 973d f272 0bbe
00000280: c6bb 5c3e 3763 483d 9c77 d93c 0c72 5fbe
00000290: ea1b c63d 4f25 29bd 4477 ecbd 3d90 503e
000002a0: 164d 4b3d 1779 04be 23d7 f7bd dcd2 72bc
000002b0: 1236 073e 86d9 85bd 2213 11be c304 b1bd
000002c0: 5529 3dbe 178d ab3d f017 3d3e ecc9 6cbe
000002d0: efbe 5b3d 204e f93d 1021 293d 112a b7bd
000002e0: d051 fd3d 5c73 ff3d e0b3 c43d 22bf 4bbd
000002f0: 9e09 8fbd 9222 a23c e6b3 48bd 2f26 a2bd
00000300: 787a 183e b306 4f3e 25ae f7bc 1c91 76bd
00000310: 8905 bcba 8be6 a6bc f52d 553d 08c5 7c3d
00000320: a19d 67be 1962 c1bd 0322 4b3e 1b85 cc3d
00000330: 992c 7fbc cf54 19be 918a 1bbe a510 62be
00000340: ca19 a9bd 128d a03d fdc2 1a3e b323 de3d
00000350: 0321 5fbe b2f2 18be 8729 2bbd d7a6 6c3e
00000360: c252 013d 5ad3 87bd 664e c63d 5b61 c4bd
00000370: 09c0 20be 38f0 323e 18b2 eabd 81bc 58bd
00000380: 8276 7bbe d1de 223e 9c99 373e b9d4 ab3d
00000390: 4628 32be d64f 78be 8a49 4dbe ab32 353e
000003a0: f02c e53d f3f3 4b3e a6fb fd3d 2c3b 6d3d
000003b0: 35c9 cdbb 2938 3cbe f1c8 54be c64c 68be
000003c0: dc55 cb3d c3de f3bd f5ed 47bd 32ee 0ebe
000003d0: 8e06 35bd 4dcd 2ebe af47 22be dbc3 a43d
000003e0: 0d9f 93bd 3952 193e 9159 9fbd a92f 36be
000003f0: 6d47 2fbd c3c7 f0bd 14f7 97bd 4372 73be

fc1.bias f4 [128]
0.10898677 0.06320583 -0.08728247 0.15412167 -0.07793459 -0.008057682 -0.09238498 -0.2300624
0.038740776 0.065221764 -0.12549242 0.14262809 -0.22105882 -0.23809245 -0.14980188 -0.09017147
-0.023322929 -0.046869475 0.1100209 -0.2137044 0.03426127 0.0012624203 0.064575344 0.24109982
0.14926818 -0.13453867 -0.19242401 -0.06040552 -0.1305726 0.085805036 0.0015659234 0.1932141
0.09560158 -0.04452165 0.00926625 0.05808388 -0.03009557 0.19667846 -0.19781365 0.12101691
-0.15282728 -0.2136886 -0.04684083 0.11782281 0.17197043 0.061675765 -0.0181588 -0.015945407
-0.09995305 -0.02176452 -0.015296662 0.20796044 0.14271753 -0.1885506 0.0010032926 -0.14917636
-0.035559837 -0.2017521 0.06304983 -0.17601007 0.23943625 0.17958632 -0.16687238 -0.22990958
0.0057455366 -0.06332684 0.06935647 -0.16417578 0.101869926 -0.20771797 -0.12800303 -0.12889615
0.11710256 -0.006349879 -0.23396109 -0.14957209 -0.10779737 -0.22503173 0.028820196 0.09146814
-0.04858431 -0.10056253 -0.0026500574 -0.19243293 -0.1476803 -0.010018463 0.2123288 -0.07458173
0.120960176 -0.09366633 -0.06477775 -0.23258121 0.20093712 0.23952065 0.0018743449 0.1522676
0.19628035 0.12047171 0.12518312 -0.23748636 -0.227113 -0.19085883 0.07965154 -0.2099251
-0.1832307 -0.117557704 -0.22762714 -0.005730603 0.036794804 -0.13947564 0.15887097 -0.092077404
-0.06504299 0.18478186 0.21213618 -0.026736595 -0.1645483 -0.12241614 0.030884303 0.14217256
0.11989817 -0.1045376 -0.23067147 -0.21818437 -0.07675246 -0.0010411425 -0.11562117 -0.19177417
00000000: 7534 df3d 0f72 813d 27c1 b2bd 12d2 1d3e
00000010: 2c9c 9fbd 5e04 04bc 5634 bdbd 7a95 6bbe
00000020: a6ae 1e3d fd92 853d 1681 00be 190d 123e
00000030: 3e5d 62be 82ce 73be aa65 19be d2ab b8bd
00000040: ba0f bfbc 35fa 3fbd a352 e13d 54d5 5abe
00000050: 8c55 0c3d cc77 a53a 1440 843d dfe2 763e
00000060: c2d9 183e 81c4 09be cd0a 45be c76b 77bd
00000070: d3b4 05be 8dba af3d ac3f cd3a ebd9 453e
00000080: c3ca c33d 555c 36bd 78d1 173c 5de9 6d3d
00000090: fc8a f6bc 1466 493e a98f 4abe b7d7 f73d
000000a0: c17e 1cbe 2fd1 5abe 2cdc 3fbd 164d f13d
000000b0: 0419 303e ba9f 7c3d c4c1 94bc f19f 82bc
000000c0: 2fb4 ccbd 824b b2bc da9e 7abc 95f3 543e
000000d0: 8b24 123e 6913 41be ea80 833a b0c1 18be
000000e0: 31a7 11bd 1a98 4ebe 4520 813d fc3b 34be
000000f0: c72e 753e 7ae5 373e 98e0 2abe 6b6d 6bbe
00000100: 0e45 bc3b 81b1 81bd c40a 8e3d b21d 28be
00000110: 2ea1 d03d 05b4 54be 3a13 03be 5afd 03be
00000120: 78d3 ef3d a512 d0bb 7f93 6fbe 6d29 19be
00000130: dec4 dcbd b86e 66be 5518 ec3c a653 bb3d
00000140: 5700 47bd baf3 cdbd 96ac 2dbb 230d 45be
00000150: 8139 17be 7b24 24bc b96c 593e 4ebe 98bd
00000160: f8b9 f73d 22d4 bfbd 32aa 84bd c529 6ebe
00000170: 76c2 4d3e e744 753e 94ac f53a 0aec 1b3e
00000180: b7fd 483e dfb9 f63d 0130 003e a02f 73be
00000190: 4f90 68be 7f70 43be 5920 a33d 9bf6 56be
000001a0: d4a0 3bbe 18c2 f0bd 1717 69be c8c7 bbbb
000001b0: 26b6 163d b4d2 0ebe 12af 223e 1493 bcbd
000001c0: 4235 85bd 7537 3d3e 3a3a 593e b406 dbbc
000001d0: 597f 28be 50b5 fabd 1401 fd3c af95 113e
000001e0: 2c8d f53d cf17 d6bd 2435 6cbe b96b 5fbe
000001f0: 6530 9dbd f276 88ba cbca ecbd 7360 44be

fc2.weight f4 [128, 128]
0.009315044 -0.07015743 -0.06787555 -0.07185495 -0.023950895 0.078069724 0.034552712 -0.010480119
0.018191317 0.035197042 0.00051497127 -0.071291775 -0.054457173 -0.060046867 -0.0022443829 -0.08091084
-0.016070867 -0.032321144 0.08674168 0.07184418 0.0513407 0.004957017 -0.028617742 0.022545256
-0.06107013 -0.037697986 -0.01775593 -0.020767258 -0.083730474 0.03513711 0.07278621 -0.04875266
0.023826519 -0.010250777 -0.0032237386 0.005152157 0.0765958 0.011843201 -0.05592128 -0.031794485
0.04318012 0.027581982 0.0017178844 -0.011665225 -0.034389857 -0.031371426 -0.046623614 0.01448347
0.024823166 0.06768294 -0.019968113 0.0063276114 0.05712446 0.038448103 0.011356816 0.027159851
0.004587927 -0.0758188 0.0034074674 -0.01931983 0.07976269 0.07978177 0.017535416 0.07900178
-0.045521673 0.07682482 0.07610106 -0.0033782911 -0.07093248 -0.028522594 -0.023637459 0.0014599984
-0.0801374 0.016380616 -0.036759976 -0.022631055 -0.045651894 -0.018661782 -0.08208848 -0.04686067
0.008142771 0.057918757 0.08032271 -0.06686185 0.037116136 -0.049824137 -0.06833807 -0.0038922087
-0.05070368 -0.07612414 -0.08260213 -0.059162594 0.072631866 0.04929489 -0.03498827 -0.05916015
-0.06799201 -0.052195214 -0.036371656 0.053085092 0.028925655 -0.034062408 0.060849313 -0.054909777
-0.07200892 0.01929077 -0.048737414 0.025144577 0.07488577 -0.041799325 -0.061678447 0.033269383
-0.07982768 0.078858115 -0.041741945 0.042732216 -0.07028391 -0.05982726 0.009736385 0.03141365
0.068535894 0.07392234 -0.0050833523 -0.011363843 0.014610752 -0.020531816 0.0030088108 -0.08370803
-0.07255866 0.060569216 -0.05165032 0.06960454 0.0097000655 0.021530064 0.08033419 -0.049160738
-0.013952798 0.015659714 0.030197153 -0.0860208 0.03141486 -0.052124903 0.011609813 0.059799105
-0.008804824 -0.0027961484 -0.0066039683 0.073758535 0.0502337 0.014864203 -0.053193454 -0.047998138
0.07040616 0.0635884 0.051177736 -0.06891792 0.068836205 -0.00844921 0.065120734 0.07676965
0.009688338 -0.036780015 0.08314257 -0.046060942 0.05775425 -0.084754705 -0.027799271 -0.077061795
-0.03964891 0.03753138 -0.06333273 -0.0764386 0.06320079 0.047183514 -0.0009665431 -0.06231032
-0.023417294 -0.028618427 0.054587796 -0.02891064 -0.025457222 -0.06265489 -0.04162982 0.047857758
0.056947336 0.012841702 -0.03316314 0.084896185 0.017446088 -0.03411759 -0.030635152 -0.012370026
0.041904703 0.032329593 0.06407806 -0.0039825086 0.073105365 -0.035902224 -0.040707532 -0.032641586
-0.08292665 -0.058021646 -0.07998039 -0.0052235434 0.0008332748 -0.022940498 -0.060403146 0.080193736
-0.029286612 0.04212172 0.061554544 -0.058102686 -0.0110505875 0.051085573 0.085680045 -0.011151171
0.064048246 -0.06937303 -0.05742939 0.07268484 -0.008368573 0.08732084 0.0064273523 -0.036655452
0.083943784 0.077294156 0.008202967 -0.053581487 -0.0038269444 -0.042507447 0.064406924 0.004094461
0.018607644 0.053604435 0.029277887 -0.055177875 0.07342634 0.054300904 -0.054565333 0.06683069
0.025076078 -0.017399145 -0.063212104 -0.014665649 -0.08665977 0.05044862 0.064015575 -0.025446834
0.08194038 -0.03272944 0.015136366 -0.061597314 -0.0037369186 0.03572921 0.03807191 -0.0029638822
00000000: 209e 183c b3ae 8fbd 5602 8bbd b028 93bd
00000010: ab34 c4bc 05e3 9f3d 2587 0d3d ceb4 2bbc
00000020: f505 953c c62a 103d 23ff 063a 6c01 92bd
00000030: 7c0e 5fbd b4f3 75bd 7f16 13bb 95b4 a5bd
00000040: 0da7 83bc 2d63 04bd 9fa5 b13d 0b23 933d
00000050: a04a 523d 796e a23b c16f eabc d4b0 b83c
00000060: ac24 7abd 3469 1abd e274 91bc 1920 aabc
00000070: e27a abbd eeeb 0f3d f010 953d dfb0 47bd
00000080: d52f c33c e0f2 27bc 5c45 53bb 6dd3 a83b
00000090: 42de 9c3d fc09 423c b60d 65bd ef3a 02bd
000000a0: a3dd 303d 9cf3 e13c a32a e13a 801f 3fbc
000000b0: 61dc 0cbd 537f 00bd 67f8 3ebd 134c 6d3c
000000c0: f459 cb3c 5a9d 8a3d 2b94 a3bc da57 cf3b
000000d0: 56fb 693d c27b 1d3d f011 3a3c 567e de3c
000000e0: 5256 963b e346 9bbd d14f 5f3b 9f44 9ebc
000000f0: 9f5a a33d a064 a33d 6fa6 8f3c afcb a13d
00000100: ef74 3abd 5556 9d3d dfda 9b3d 5266 5dbb
00000110: 0c45 91bd 37a8 e9bc 58a3 c1bc 6b5d bf3a
00000120: 141f a4bd a430 863c a191 16bd c364 b9bc
00000130: 7bfd 3abd 98e0 98bc 011e a8bd f9f0 3fbd
00000140: 4269 053c 383c 6d3d 3c80 a43d deee 88bd
00000150: 1707 183d 6514 4cbd d4f4 8bbd 6d14 7fbb
00000160: a9ae 4fbd f9e6 9bbd 4e2b a9bd 7a54 72bd
00000170: 04c0 943d 70e9 493d dc4f 0fbd ea51 72bd
00000180: 653f 8bbd a6ca 55bd 72fa 14bd c16f 593d
00000190: 7ff5 ec3c 0685 0bbd 213d 793d 13e9 60bd
000001a0: 6a79 93bd ad07 9e3c e2a0 47bd 00fc cd3c
000001b0: b65d 993d c535 2bbd 8aa2 7cbd 7a45 083d
000001c0: b27c a3bd 5d80 a13d 9af9 2abd fa07 2f3d
000001d0: 03f1 8fbd 6e0d 75bd 5c85 1f3c 99ab 003d
000001e0: 8c5c 8c3d 9964 973d 4092 a6bb 6a2f 3abc
000001f0: f061 6f3c 5732 a8bc 782f 453b 1e6f abbd
00000200: a299 94bd 6d17 783d 498f 53bd d38c 8e3d
00000210: 06ed 1e3c d15f b03c 4086 a43d c55c 49bd
00000220: 479a 64bc cd48 803c 0560 f73c ac2b b0bd
00000230: deac 003d ec80 55bd 1637 3e3c e8ef 743d
00000240: 1c42 10bc 963f 37bb 1a66 d8bb b70e 973d
00000250: dac1 4d3d fc88 733c 61e1 59bd b299 44bd
00000260: 1b31 903d a33a 823d bf9f 513d d724 8dbd
00000270: fff9 8c3d 8e6e 0abc 055e 853d 6839 9d3d
00000280: d6bb 1e3c a4a6 16bd a746 aa3d 66aa 3cbd
00000290: b88f 6c3d e093 adbd 4cbb e3bc 93d2 9dbd
000002a0: e566 22bd 81ba 193d 97b4 81bd d78b 9cbd
000002b0: 6a6f 813d 8043 413d 9c5f 7dba 1b39 7fbd
000002c0: a0d5 bfbc 3171 eabc 7497 5f3d 02d6 ecbc
000002d0: aa8b d0bc 3551 80bd 0884 2abd 7f06 443d
000002e0: 9c41 693d 0166 523c 13d6 07bd 0dde ad3d
000002f0: 19eb 8e3c e3be 0bbd 92f6 fabc a6ab 4abc
00000300: 44a4 2b3d 096c 043d 5c3b 833d b47f 82bb
00000310: 44b8 953d 360e 13bd f1bc 26bd 2fb3 05bd
00000320: 73d5 a9bd 1ba8 6dbd c2cc a3bd 422a abbb
00000330: 2070 5a3a b6ed bbbc 4a69 77bd 9d3c a43d
00000340: 7aea efbc d387 2c3d 9e20 7c3d 15fd 6dbd
00000350: 860d 35bc 1b3f 513d 0579 af3d 67b3 36bc
00000360: ba2b 833d 7213 8ebd 143b 6bbd cadb 943d
00000370: 571c 09bc 45d5 b23d 8a9c d23b 0724 16bd
00000380: b8ea ab3d 664c 9e3d bd65 063c 4378 5bbd
00000390: 79cd 7abb 4a1c 2ebd c7e7 833d d42a 863b
000003a0: 0f6f 983c 5390 5b3d 2ed8 ef3c 3202 62bd
000003b0: 8d60 963d a06a 5e3d e67f 5fbd 87de 883d
000003c0: 596c cd3c a788 8ebc 5975 81bd 3148 70bc
000003d0: ad7a b1bd 36a3 4e3d 991a 833d e175 d0bc
000003e0: 5cd0 a73d 4e0f 06bd 85fe 773c 774d 7cbd
000003f0: 17e7 74bb cb58 123d 4bf1 1b3d b13d 42bb

fc2.bias f4 [128]
0.074968375 -0.035965264 0.018476306 0.034353364 0.020334031 -0.0537058 -0.059583418 -0.06836227
0.036214847 -0.011261754 -0.05350744 -0.07139421 0.049128644 0.019208875 -0.08469602 -0.0031705336
-0.024083741 -0.002464853 0.021195168 0.024790915 -0.084967196 0.01761287 0.042370714 -0.02229589
0.06796292 0.08042035 0.024566334 0.08137261 0.03437463 -0.049200036 0.055252664 -0.03952791
-0.066262126 -0.07750142 0.0033722513 0.0771293 -0.031473823 0.024943456 0.028718093 0.060640294
0.07157785 0.046881404 -0.03146833 0.0007920999 -0.08473221 -0.0675677 -0.045802105 0.056479674
0.020341458 -0.00027942305 0.062406566 -0.0051616505 0.07149415 0.082114294 -0.0653526 0.06972292
0.052940246 -0.015824921 0.024669945 -0.059394572 -0.027939577 -0.043115698 -0.06147614 -0.018695949
-0.09224808 -0.020042814 0.060771704 -0.05189125 -0.033896163 0.0035900264 -0.03585341 0.004519448
-0.0762031 0.025899947 0.07828775 0.008168927 0.0850089 -0.08146747 -0.046890434 -0.028095124
0.07463806 -0.08678554 -0.017720997 -0.07834262 0.016556706 -0.07676443 -0.06852405 -0.059547357
-0.034493227 0.053384103 0.011254911 -0.07772269 0.082183056 -0.0017938014 0.02656033 -0.045641687
-0.0416739 -0.06619761 -0.070970364 -0.04633 0.04683147 -0.040013835 -0.075006634 0.028314909
-0.023220278 -0.06334649 0.07625806 -0.07951006 -0.08676612 0.05108491 0.046055593 -0.0383901
0.059597008 -0.058137003 -0.033487376 -0.010205468 -0.03442799 0.066971235 -0.07665218 0.071566336
0.054619938 -0.052276555 -0.04658452 0.014450724 -0.009928443 -0.07837712 0.072310716 0.06954806
00000000: 0589 993d 5050 13bd 9f5b 973c 1db6 0c3d
00000010: 8e93 a63c 9dfa 5bbd be0d 74bd 8501 8cbd
00000020: 0556 143d 3883 38bc 9e2a 5bbd 2137 92bd
00000030: 1e3b 493d ee5b 9d3c 1b75 adbd bac8 4fbb
00000040: 444b c5bc 5f89 21bb 7da1 ad3c 5116 cb3c
00000050: 4803 aebd de48 903c ea8c 2d3d dfa5 b6bc
00000060: 2530 8b3d 6db3 a43d 563f c93c afa6 a63d
00000070: 69cc 0c3d fa85 49bd 9e50 623d 05e8 21bd
00000080: 70b4 87bd 11b9 9ebd fd00 5d3b f7f5 9d3d
00000090: b2ea 00bd 3856 cc3c 3542 eb3c f561 783d
000000a0: 6897 923d b706 403d f0e4 00bd eda4 4f3a
000000b0: 1588 adbd ef60 8abd fd9a 3bbd 3b57 673d
000000c0: 21a3 a63c 877f 92b9 079e 7f3d 1023 a9bb
000000d0: 866b 923d 8a2b a83d 95d7 85bd e4ca 8e3d
000000e0: dfd7 583d 44a3 81bc a018 ca3c b947 73bd
000000f0: 8ae1 e4bc 169a 30bd 68ce 7bbd 3f28 99bc
00000100: 90ec bcbd d430 a4bc c0eb 783d eb8b 54bd
00000110: b4d6 0abd a646 6b3b 06db 12bd e117 943b
00000120: 5f10 9cbd 202c d43c 5455 a03d f7d6 053c
00000130: 2519 ae3d 6bd8 a6bd 2f10 40bd bf27 e6bc
00000140: d7db 983d 9ebc b1bd a02b 91bc 1872 a0bd
00000150: eea1 873c ab36 9dbd 5656 8cbd eee7 73bd
00000160: c548 0dbd 4aa9 5a3d 8566 383c 132d 9fbd
00000170: 974f a83d fd1d ebba 0d95 d93c c7f2 3abd
00000180: 40b2 2abd 9d92 87bd e958 91bd 87c4 3dbd
00000190: 5bd2 3f3d 8ce5 23bd 149d 99bd abf4 e73c
000001a0: 7438 bebc cebb 81bd 302d 9c3d 2cd6 a2bd
000001b0: 6fb2 b1bd 693e 513d caa4 3c3d f03e 1dbd
000001c0: fe1b 743d 1121 6ebd 0f2a 09bd d634 27bc
000001d0: 5d04 0dbd 3728 893d d1fb 9cbd 5f91 923d
000001e0: 28b9 5f3d f11f 56bd 69cf 3ebd bbc2 6c3c
000001f0: e8aa 22bc 2f84 a0bd a417 943d 376f 8e3d

fc3.weight f4 [16, 128]
0.070729025 0.041969724 -0.064017266 -0.047210414 -0.037317578 0.024419712 0.048502717 -0.0041753724
-0.086597554 -0.056024455 -0.042402882 -0.0594978 0.043251295 0.0050547537 -0.063081734 -0.057357702
-0.064575695 -0.06123363 0.031937122 -0.044756833 -0.075753205 0.0046821735 -0.0024964425 -0.07165872
0.023814023 0.008847698 0.011544254 0.038180232 -0.041413046 -0.07574297 0.0571341 0.07979472
0.08140737 0.046775185 0.080443725 0.025066929 -0.07558895 0.026827963 -0.067589775 -0.08529925
0.03377316 -0.046813145 -0.063853815 0.0822955 0.028168434 0.042052142 -0.027032364 0.03166096
-0.0027074807 -0.020643948 -0.014242688 0.06424206 -0.06126627 -0.021726597 0.06295656 -0.0029550535
0.043301214 -0.040066548 0.0573869 -0.06283055 -0.047394753 -0.08362282 -0.07059851 0.05385347
0.05641516 0.044849835 0.04610797 0.058764614 0.05322742 0.052015774 -0.045942932 0.065810785
0.057748258 0.02870988 -0.014560796 0.07630817 -0.0067618117 -0.08113049 -0.032642737 -0.0029888183
0.041886188 0.02516689 0.017991731 0.07413845 0.05684852 -0.0502066 -0.03717253 -0.009564774
-0.00892418 -0.06754602 -0.024181863 0.0640981 -0.084964715 0.012734375 0.018142812 -0.028233573
-0.030066296 -0.044301752 -0.08313001 -0.07960565 0.046943583 -0.0030504744 -0.0038461739 -0.016038395
-0.08360071 -0.014420702 -0.08042544 0.043306272 -0.03122605 -0.030036846 0.03419181 -0.059178825
-0.056119964 -0.049049657 -0.020756254 -0.056615796 -0.08427089 0.038612448 0.048246622 -0.0364762
-0.06466339 0.0637551 -0.0536726 -0.06941146 -0.079834744 0.02189179 0.020042418 0.08413504
-0.03474859 -0.055221476 0.08788924 0.06415593 -0.07823293 -0.079032734 0.03875505 -0.04402824
0.023591964 -0.0058020405 -0.024485212 0.0754523 0.030371265 0.03446437 -0.06634205 -0.030618947
0.041315187 0.048584886 0.012845978 -0.06956838 -0.04436726 0.10073324 0.07686434 0.05468838
-0.051604915 -0.037853975 0.03197317 -0.07008394 -0.013524044 0.04057675 0.034841683 0.046358444
0.007914304 0.06405748 -0.07924726 -0.04371343 -0.02466462 0.0626908 -0.06899988 0.069851495
-0.047630303 -0.026701082 0.06540657 0.09015144 0.026509967 -0.013927405 0.066328555 0.004265845
0.05635587 0.035798237 0.012001605 0.08652395 0.047457866 0.090312235 0.09488037 0.020155098
-0.037546124 -0.024361275 -0.010553804 -0.028845418 0.009222225 0.094536215 0.05822076 0.028097419
0.049945764 -0.049377106 0.044665072 0.08215252 0.0328211 0.0013603 0.07466629 -0.06869689
0.05364395 -0.013599626 -0.075687245 0.053930357 -0.012722811 -0.014430111 -0.037386492 -0.024156531
-0.01065125 -0.08066234 0.041545823 0.016538126 0.036328606 0.087950654 -0.016561111 -0.04709069
-0.04779692 -0.008245123 -0.013349816 0.04220243 0.009167773 0.029450078 -0.042292535 -0.07610318
0.0032959783 0.018695794 -0.03882651 -0.030855948 -0.010406369 -0.075280994 0.08249818 0.06687898
-0.06453201 -0.08422667 0.0785447 0.08313923 -0.076444246 0.018736582 -0.053086646 -0.059110157
-0.059138928 0.002770818 0.08582915 0.04570992 -0.076879114 0.05235317 0.09237678 0.062376525
0.08936325 -0.04786249 -0.044981454 0.052903604 -0.06639323 -0.024996452 0.06344671 0.02715279
00000000: 61da 903d 72e8 2b3d 7c1b 83bd b55f 41bd
00000010: 51da 18bd d90b c83c c9aa 463d 90d1 88bb
00000020: 0f5a b1bd e679 65bd a5ae 2dbd f7b3 73bd
00000030: 4528 313d 59a2 a53b ff30 81bd e9ef 6abd
00000040: 4340 84bd 1dd0 7abd 80d0 023d f152 37bd
00000050: 7f24 9bbd eb6c 993b 5b9b 23bb cfc1 92bd
00000060: a015 c33c eff5 103c 1c24 3d3c e062 1c3d
00000070: baa0 29bd 211f 9bbd 7205 6a3d 6a6b a33d
00000080: e8b8 a63d 5697 3f3d aebf a43d 2959 cd3c
00000090: 61ce 9abd 51c6 db3c 826c 8abd 60b1 aebd
000000a0: ba55 0a3d 24bf 3fbd cac5 82bd 8b8a a83d
000000b0: 7dc1 e63c de3e 2c3d fa72 ddbc ecae 013d
000000c0: fd6f 31bb 7f1d a9bc 2a5a 69bc 5791 833d
000000d0: 57f2 7abd fafb b1bc 5eef 803d 92a9 41bb
000000e0: 9d5c 313d d21c 24bd 870e 6b3d 4ead 80bd
000000f0: 0021 42bd 7142 abbd f495 90bd 7595 5c3d
00000100: 9513 673d 76b4 373d b6db 3c3d 2ab3 703d
00000110: ff04 5a3d 7e0e 553d a82e 3cbd cec7 863d
00000120: 7089 6c3d fb30 eb3c 6890 6ebc 7547 9c3d
00000130: 3092 ddbb be27 a6bd 64b4 05bd 0de0 43bb
00000140: da90 2b3d cb2a ce3c 6563 933c e6d5 973d
00000150: fed9 683d 70a5 4dbd 3942 18bd 92b5 1cbc
00000160: b936 12bc 9155 8abd 0b19 c6bc dd45 833d
00000170: fb01 aebd d7a3 503c 3ca0 943c 184a e7bc
00000180: 984d f6bc c175 35bd 1140 aabd 4908 a3bd
00000190: ea47 403d 78ea 47bb 1710 7cbb f462 83bc
000001a0: d936 abbd cf44 6cbc 18b6 a4bd eb61 313d
000001b0: c6cd ffbc d50f f6bc b60c 0c3d 7f65 72bd
000001c0: 0cde 65bd 4be8 48bd 0509 aabc f7e5 67bd
000001d0: 3796 acbd 1628 1e3d 409e 453d 1168 15bd
000001e0: 3d6e 84bd 0992 823d cdd7 5bbd 9827 8ebd
000001f0: 6680 a3bd 6956 b33c ff2f a43c fe4e ac3d
00000200: 8a54 0ebd ea2f 62bd 46ff b33d 2f64 833d
00000210: 9638 a0bd eadb a1bd 9ebd 1e3d f556 34bd
00000220: ef43 c13c 0b1f bebb 3695 c8bc bc86 9a3d
00000230: 29cd f83c 832a 0d3d 57de 87bd 96d4 fabc
00000240: 1d3a 293d f200 473d f077 523c de79 8ebd
00000250: 72ba 35bd 3b4d ce3d 0d6b 9d3d ec00 603d
00000260: ad5f 53bd c50c 1bbd 4cf6 023d 2b88 8fbd
00000270: f493 5dbc ce33 263d 27b6 0e3d 5ae2 3d3d
00000280: ffaa 013c 9130 833d 634c a2bd db0c 33bd
00000290: 750d cabc 0964 803d cf4f 8dbd 4d0e 8f3d
000002a0: fe17 43bd 3abc dabc e1f3 853d 51a1 b83d
000002b0: 6e2b d93c c52f 64bc 44d7 873d 80c8 8b3b
000002c0: 6ad5 663d 2ca1 123d 61a2 443c 7833 b13d
000002d0: 2e63 423d 9ff5 b83d a450 c23d 4e1c a53c
000002e0: f7c9 19bd 4c91 c7bc dde9 2cbc 3a4d ecbc
000002f0: d118 173c 349c c13d e478 6e3d 8f2c e63c
00000300: ee93 4c3d a63f 4abd b9f2 363d 953f a83d
00000310: 6b6f 063d 184c b23a a4ea 983d f4b0 8cbd
00000320: c2b9 5b3d f7d0 5ebc ea01 9bbd 14e6 5c3d
00000330: 5673 50bc 466c 6cbc 9422 19bd ebe3 c5bc
00000340: 9582 2ebc 4c32 a5bd f42b 2a3d f77a 873c
00000350: 4ecd 143d 791f b43d 2bab 87bc 2be2 40bd
00000360: b4c6 43bd 8d16 07bc 30b9 5abc 75dc 2c3d
00000370: 6d34 163c 4a41 f13c f03a 2dbd fcdb 9bbd
00000380: 5701 583b ec27 993c 8c08 1fbd 9dc5 fcbc
00000390: 7a7f 2abc ec2c 9abd cef4 a83d d9f7 883d
000003a0: 5c29 84bd 087f acbd 0bdc a03d e744 aa3d
000003b0: cd8e 9cbd 767d 993c 6271 59bd 7e1d 72bd
000003c0: a93b 72bd 9d96 353b 32c7 af3d 533a 3b3d
000003d0: cc72 9dbd 4770 563d 0a30 bd3d 877e 7f3d
000003e0: 1404 b73d 750b 44bd 793e 38bd 73b1 583d
000003f0: 2cf9 87bd 5cc5 ccbc 59f0 813d 876f de3c

fc3.bias f4 [16]
-0.036823504 0.028246505 0.06563626 -0.011470123 -0.013870589 0.08300067 0.092281 0.051068127
0.0043468284 -0.001491598 -0.057165973 0.05850054 0.041521847 0.073473446 -0.057875868 0.03668094
00000000: 3ed4 16bd 3765 e73c 4e6c 863d 2fed 3bbc
00000010: 7841 63bc 41fc a93d d2fd bc3d d02c 513d
00000020: d76f 8e3b b981 c3ba de26 6abd 439e 6f3d
00000030: d012 2a3d 3f79 963d 3f0f 6dbd c13e 163d
